tf-lite-models/3.tflite (tflite, 212096 bytes, 16 tensors)

arith.constant f4 [64]
0	0xbc97170d	-0.018443609
1	0x3c0693a7	0.008213914
2	0xbccb91ee	-0.024849858
3	0xbbfb2aef	-0.00766503
4	0x3d072319	0.032992456
5	0xbb9e989e	-0.0048399707
6	0xbc222bd6	-0.009898147
7	0xbc4e5d54	-0.012595493
8	0xbc4a2194	-0.012337107
9	0x3dfb5165	0.12271384
10	0xbce3eb6f	-0.027822224
11	0x3d008aed	0.03138249
12	0xbc538d75	-0.012912144
13	0xbbcdb80a	-0.0062780427
14	0x3c413776	0.011793008
15	0xbbdb09ff	-0.0066845412
16	0xbca31338	-0.019906625
17	0xbbcf1ee5	-0.0063208216
18	0xbcc70599	-0.024294661
19	0x3a9f44c1	0.0012151228
20	0x3daa9d2f	0.08330762
21	0xbc8065d2	-0.015673552
22	0xbc6f4551	-0.014603929
23	0x3d5d4305	0.054018993
24	0x3cc4d264	0.024026103
25	0xbca3290e	-0.019917037
26	0xbc8ab911	-0.01693395
27	0xbcde2e59	-0.02712171
28	0xbc56fbad	-0.013121528
29	0x3d0a367f	0.033743378
30	0xbc938b6c	-0.018010817
31	0xbc6c0cc8	-0.014407344
32	0xbdb5f320	-0.08884263
33	0x3d8a895f	0.06764483
34	0xbbbce773	-0.0057648956
35	0xbc684562	-0.014176698
36	0xbc8fc004	-0.017547615
37	0x3ddb2537	0.107004575
38	0x3c63aaf9	0.0138957435
39	0x3dadf345	0.084936656
40	0x3ce11aeb	0.027478656
41	0xbd342d46	-0.04398849
42	0x3c1e888f	0.009676113
43	0x3b70abaa	0.0036723414
44	0x3dd0514e	0.10171758
45	0x3dd59219	0.104282565
46	0xbbfcc129	-0.007713456
47	0xbd1e3338	-0.038623065
48	0xbcb86525	-0.022509167
49	0x3c95809a	0.018249799
50	0xbc0f8eb1	-0.008762048
51	0xbc6cdfa6	-0.014457619
52	0xbcecb8b9	-0.028896676
53	0xbca0236b	-0.019548139
54	0xbd217b75	-0.03942438
55	0x3dec9f42	0.115538135
56	0x3d5a2eb0	0.05326718
57	0xbc4c35ea	-0.012464026
58	0xbcc93289	-0.02456023
59	0xbc8fced8	-0.017554685
60	0x38d60490	0.00010205165
61	0x3dd0b02b	0.101898514
62	0x3dc89eee	0.097959384
63	0xbc9c245e	-0.01906031

arith.constant1 f4 [3]
0	0xbc8f2890	-0.017475396
1	0x3d8c56a4	0.06852463
2	0xbda6dae6	-0.0814722

arith.constant21 f4 [3, 64]
0	0x3e1e9419	0.15486182
1	0x3e30241c	0.17201275
2	0xbe997f36	-0.29979867
3	0x3d0626a5	0.032751698
4	0xbddf795d	-0.1091182
5	0xbc1ae2bd	-0.009453473
6	0xbc70ec5d	-0.014704791
7	0x3e8a4b84	0.2701074
8	0xbe78c15d	-0.24292512
9	0x3de04da5	0.109523095
10	0xbe3967da	-0.18106022
11	0xbd892c09	-0.06697852
12	0x3e68dc75	0.22740348
13	0xbb081f6e	-0.0020770687
14	0x3de5b969	0.11217005
15	0xbdc3f669	-0.095684834
16	0xbe218f2d	-0.15777273
17	0xbe8bdb65	-0.27315822
18	0xbe1b2c3d	-0.15153594
19	0x3c79a490	0.015236989
20	0xbe77e616	-0.24208865
21	0x3d4f9b03	0.05068494
22	0xbe092591	-0.13393237
23	0xbe628883	-0.22122388
24	0xbe99f339	-0.30068377
25	0xbe9649f0	-0.29353285
26	0x3e5c46df	0.2151141
27	0xbd38fc67	-0.045162585
28	0x3e147eb7	0.14501463
29	0x3d648c39	0.05579779
30	0xbe9a556a	-0.3014329
31	0xbddd8a2b	-0.10817369
32	0x3db3d9c3	0.08781769
33	0x3e32bfb1	0.17455937
34	0x3dabda9f	0.08391308
35	0xbe6a7303	-0.22895436
36	0x3eaa0afe	0.3321151
37	0x3e875900	0.2643509
38	0x3cb9a81a	0.022663165
39	0x3c9e88d7	0.01935236
40	0x3e95af4b	0.292353
41	0x3e3f89d4	0.18704921
42	0xbe8e61bf	-0.2780895
43	0xbe219c4d	-0.1578228
44	0xbe643ee5	-0.22289617
45	0x3e15069a	0.145533
46	0xbe3dfd0f	-0.18553565
47	0xbe863119	-0.26209334
48	0xbe864d72	-0.2623096
49	0x3d8d7c9e	0.069085345
50	0x3b1a610e	0.0023556384
51	0xbe4d3592	-0.20039967
52	0x3c86fa83	0.016476875
53	0x3e2e8445	0.17042644
54	0x3e7ddbfd	0.2479095
55	0xbd3d5a35	-0.046228606
56	0x3e21b331	0.15791012
57	0xbe1bf0e2	-0.15228608
58	0xb724fcbc	-9.834006e-06
59	0xbe264b7c	-0.16239733
60	0xbda7d10f	-0.08194172
61	0x3e6831ec	0.22675294
62	0xbb91e010	-0.004451759
63	0xbe3bddfa	-0.18346396
64	0xbd116d82	-0.035504825
65	0xbd65fc34	-0.056148723
66	0x3d3bc4ee	0.045842104
67	0x3e8ef9a8	0.27924848
68	0x3de1b4fe	0.1102085
69	0xbcbc5797	-0.022990985
70	0xbdf897e1	-0.121383436
71	0x3e43977a	0.19100752
72	0xbe533d00	-0.20628738
73	0x3e6ce614	0.23134643
74	0xbcfe38db	-0.03103297
75	0x3e703f9b	0.23461764
76	0x3e736dfb	0.23772423
77	0xbda211cd	-0.079135515
78	0x3e085009	0.13311781
79	0xbe3f1151	-0.1865895
80	0xbd690dd5	-0.056897957
81	0x3cda0366	0.026612949
82	0x3e8a4d10	0.2701192
83	0x3e7f91fd	0.24958034
84	0x3e15de82	0.14635661
85	0xbe1dfa4a	-0.15427509
86	0x3e838329	0.25686005
87	0xbe21318f	-0.15741561
88	0x3e6a161d	0.22859998
89	0x3e747fe0	0.23876905
90	0x3c4ff411	0.012692467
91	0xbd92bd08	-0.07164961
92	0xbe857d49	-0.26072147
93	0x3d1ddcfc	0.038540825
94	0xbdf23992	-0.11827387
95	0x3e41031c	0.18848842
96	0x3cef7e2f	0.029234974
97	0x3de21d56	0.11040752
98	0x3e684c55	0.22685368
99	0xbc8b7a32	-0.01702604
100	0x3b190397	0.0023348087
101	0x3e836bf3	0.25668296
102	0xbd9e2142	-0.07721187
103	0x3e007d2e	0.12547752
104	0x3e34a7fb	0.17642204
105	0x3ca7d14e	0.020485546
106	0xbdcad614	-0.099041134
107	0x3d206658	0.039160103
108	0x3e148e0e	0.14507315
109	0x3de58df7	0.11208718
110	0x3e542646	0.20717725
111	0xbe0ccb88	-0.13749516
112	0x3e16f61b	0.1474232
113	0x3e62d3d7	0.22151123
114	0xbe0eb731	-0.1393707
115	0x3e7bccc9	0.24589838
116	0xbe923733	-0.2855774
117	0xbd7a4f61	-0.061110858
118	0xbde70641	-0.1128049
119	0xbce163e0	-0.027513444
120	0x3d9b57c8	0.07585102
121	0xbe809ce9	-0.25119713
122	0xbcafddce	-0.02146807
123	0x3de93693	0.11387362
124	0x3ddc8171	0.107668765
125	0x3e802c36	0.2503373
126	0x3de03f4f	0.10949575
127	0x3e6136db	0.21993582
128	0x3decea46	0.115681216
129	0xbe8cb29e	-0.27480024
130	0xbb569f5c	-0.0032748794
131	0xbdb49be2	-0.08818795
132	0xbe230b30	-0.15922236
133	0x3ddb98dd	0.10722516
134	0x3e764c20	0.24052477
135	0x3e25e90d	0.16202183
136	0xbd929395	-0.07157055
137	0xbd3b67c0	-0.04575324
138	0x3dbea6d2	0.09309162
139	0x3e8ff26d	0.28114644
140	0xbc8a8d98	-0.01691322
141	0x3e81a02e	0.2531752
142	0xbe373d46	-0.17894468
143	0xbddff9bb	-0.10936304
144	0xbe043f9e	-0.12914893
145	0x3e9482fc	0.29006183
146	0x3e492196	0.19641718
147	0x3e982fbd	0.2972392
148	0xbe2657ed	-0.16244479
149	0x3ce8743e	0.028375741
150	0x3c03e42f	0.008050009
151	0xbe567db1	-0.20946385
152	0x3e7d5bca	0.24742046
153	0x3c99fa82	0.01879621
154	0x3e5963df	0.21229504
155	0xbdcde5fc	-0.10053632
156	0xbd224fdb	-0.039626937
157	0xbce465f5	-0.027880648
158	0xbcd937eb	-0.026515922
159	0x3e519b68	0.20469439
160	0x3e8e3ee9	0.27782372
161	0xbeb2cb0a	-0.34920532
162	0x3dce79a6	0.10081796
163	0xbd14be6f	-0.036314424
164	0x3d9ad369	0.075598545
165	0x3d9c2739	0.07624669
166	0xbe715e63	-0.23571162
167	0xbd05418d	-0.032533217
168	0xbdb265a2	-0.08710791
169	0x3e5c2286	0.21497545
170	0xbca84192	-0.020539079
171	0xbe0fd3af	-0.14045595
172	0xbd815e1d	-0.06316779
173	0xbe0097db	-0.12557928
174	0xbdc0354c	-0.093851656
175	0x3e839858	0.25702167
176	0x3e93ac75	0.28842512
177	0x3d0ca417	0.034336176
178	0x3e7034ca	0.23457637
179	0xbe67205c	-0.22570938
180	0xbd9cd616	-0.07658021
181	0xbe8a3b37	-0.26998302
182	0x3d504cf0	0.050854623
183	0xbe9e6ade	-0.30940908
184	0xbead1f59	-0.3381298
185	0xbe4d64ac	-0.20057935
186	0x3c5d02fb	0.01348948
187	0xbe8b4c75	-0.2720677
188	0x3e0ac965	0.13553388
189	0xbe9e70a9	-0.30945328
190	0xbe6899fa	-0.22714987
191	0x3daa39e2	0.083118215

arith.constant23 f4 [32, 3, 3, 3]
0	0xbcdca3cd	-0.026933575
1	0xbdce1ece	-0.10064469
2	0xbd868328	-0.06567985
3	0xbdf3fe2a	-0.11913712
4	0xbc42229f	-0.011849075
5	0xbd3f6ca6	-0.046734475
6	0xbe00aff4	-0.12567121
7	0xbd1f254a	-0.03885392
8	0xbdc5ba7f	-0.09654712
9	0xba87a86d	-0.0010349877
10	0xbbba81c0	-0.005691737
11	0x3d22dc72	0.039761014
12	0xbd29c18a	-0.04144434
13	0xbc0a8673	-0.008454907
14	0x3d9450cd	0.07241974
15	0xbdeedb9b	-0.1166298
16	0xbd830380	-0.06397152
17	0xbdb4b443	-0.08823445
18	0x3cfd2157	0.030899687
19	0xbd942018	-0.07232684
20	0x3dae2da2	0.085047975
21	0x3c135d78	0.008994453
22	0x3da79089	0.08181865
23	0xbd7fcbd5	-0.06245025
24	0xbdc412b3	-0.09573879
25	0xbc8c41e6	-0.017121267
26	0x3d9d3ac4	0.07677224
27	0xbe1ce908	-0.1532327
28	0x3d330261	0.04370344
29	0xbd9b6bc9	-0.07588918
30	0xbd19b42f	-0.037525352
31	0x3d8f512a	0.06997903
32	0xbdbdc995	-0.09266964
33	0x3cdd8985	0.027043113
34	0x3df92b02	0.12166406
35	0x3d3f4a8e	0.04670196
36	0xb994f858	-0.0002841379
37	0xbdbf50d6	-0.0934159
38	0xbe10d15d	-0.14142366
39	0xbe21ca50	-0.15799832
40	0xbca91bc1	-0.020643117
41	0xbde0792e	-0.10960613
42	0x3dc673c9	0.09690053
43	0xbd4e2307	-0.050326373
44	0xbd8db6c0	-0.069196224
45	0x3dcb7931	0.09935225
46	0x3dcc372d	0.099714614
47	0xbdc177ae	-0.09446655
48	0xbd606cc3	-0.054791223
49	0x3d8c640b	0.06855019
50	0x3dd30b37	0.103048734
51	0xbe1092cb	-0.14118497
52	0x3d88e28f	0.066838376
53	0x3de7cff2	0.11318959
54	0xbb11ae80	-0.0022229254
55	0xbd6eac94	-0.058270052
56	0xbccdfbe8	-0.025144532
57	0xbddac51e	-0.10682128
58	0x3dcec110	0.100954175
59	0xbdd15313	-0.10220923
60	0xbd87f803	-0.06639101
61	0xbdf1d52e	-0.11808239
62	0xbdda84df	-0.106698744
63	0xbe04bacb	-0.12961881
64	0x3d8f8b0a	0.070089415
65	0xbcc0c6f0	-0.02353236
66	0xbdbd98ac	-0.092576355
67	0x3d1b5c50	0.037929833
68	0xbd38271a	-0.044959165
69	0x3e008ccb	0.12553708
70	0xbd9faeb0	-0.07796991
71	0xbdd4f85a	-0.10398932
72	0xbe0b28ca	-0.13589779
73	0xbd1b76f2	-0.037955232
74	0xbd2d37c8	-0.042289525
75	0xbe05eeaf	-0.13079332
76	0x3d8fa8fe	0.070146546
77	0xbe03a854	-0.12857181
78	0xbd72e642	-0.059301622
79	0xbcf1ee00	-0.029532433
80	0xbbad44a0	-0.0052877218
81	0x3ddc68a4	0.10762146
82	0xbc1b47ad	-0.009477538
83	0x3db46ffe	0.08810423
84	0x3decf72e	0.11570583
85	0x3e1fbc1c	0.15599102
86	0xbd2a9380	-0.041644573
87	0xbd98e1ef	-0.074649684
88	0x3e1226c0	0.14272594
89	0xbd39c695	-0.0453554
90	0x3d021f7c	0.031768307
91	0xbdd1bd76	-0.10241215
92	0x3c9a8e97	0.01886682
93	0xbca6f4fb	-0.020380488
94	0x3dacb8ca	0.08433683
95	0x3e06b674	0.13155538
96	0xbd9d9b50	-0.07695639
97	0xbba25ab6	-0.0049546612
98	0x3e07f92e	0.13278648
99	0x3d3f5e7d	0.04672097
100	0xbd8be5d1	-0.068309434
101	0xbd17537d	-0.036944855
102	0xbe0a2ebc	-0.1349439
103	0xbcf1cccc	-0.0295166
104	0xbdc44a46	-0.09584479
105	0xbe24fb41	-0.16111471
106	0xbe0e514f	-0.13898204
107	0xbe0267d3	-0.12734918
108	0x3c829730	0.015941232
109	0xbdc63967	-0.096789174
110	0xbd51be03	-0.0512066
111	0xbe0c89ef	-0.13724492
112	0x3ca619e4	0.020276017
113	0xbe291912	-0.1651347
114	0x3de0918f	0.10965263
115	0x3ddd3406	0.10800938
116	0xbbf46117	-0.007457863
117	0xbce31f32	-0.027724836
118	0xbe03099a	-0.12796631
119	0x3cb3ad37	0.021933181
120	0xbd6e0502	-0.058110245
121	0xbad0a435	-0.0015918078
122	0xbde8c7f8	-0.11366266
123	0x3ae00432	0.0017091094
124	0x3c4979ad	0.012297076
125	0xbe13431b	-0.14381067
126	0xbd49f08e	-0.049301676
127	0x3c81cd38	0.015844926
128	0x3dd350ce	0.10318147
129	0xbd7d6941	-0.061867956
130	0x3d16564d	0.036703397
131	0x3d152666	0.036413573
132	0x3d17f22f	0.0370962
133	0xbae0d1f5	-0.0017152416
134	0xbdc4c5be	-0.09608029
135	0xbd78be16	-0.060728155
136	0xbe0ebca1	-0.13939144
137	0x3db9b49a	0.0906765
138	0xbd1d0af1	-0.038340513
139	0x3da37ab5	0.07982389
140	0xbd5359b9	-0.051599238
141	0x3c5a2467	0.013314343
142	0xbd9cd456	-0.07657687
143	0x3d6a9a8a	0.057276286
144	0x3d2b68d1	0.041848008
145	0xbe123052	-0.14276245
146	0xbdaac95a	-0.08339186
147	0x3daf8a57	0.08571308
148	0x3cad6e53	0.02117077
149	0xbd298470	-0.041386068
150	0xbdf636b5	-0.12022153
151	0xbd8ab70c	-0.06773195
152	0xbcd4b54a	-0.025965352
153	0x3da21986	0.079150245
154	0xbda09139	-0.07840199
155	0xbd5925cd	-0.053014565
156	0xbdd04693	-0.10169711
157	0xbde0e85e	-0.109818205
158	0x3e0a6352	0.1351445
159	0x3d0dccff	0.034619328
160	0xbd0b6771	-0.034034196
161	0x3cbc7f84	0.023010023
162	0xbd555834	-0.05208607
163	0x3d193db2	0.037412353
164	0x3dc31191	0.09524835
165	0xbe04af8e	-0.12957594
166	0xbb1e1408	-0.0024120826
167	0xbcf132cc	-0.029443167
168	0x3da6cf4f	0.0814501
169	0x3d809b67	0.06279641
170	0x3dc774c5	0.09739069
171	0x3e04ce4f	0.12969325
172	0xbb9733b6	-0.0046143187
173	0x3e0fb1b3	0.1403263
174	0x3d729c1f	0.05923092
175	0xbc56e102	-0.0131151695
176	0x3c967728	0.018367365
177	0xbdff3362	-0.12460972
178	0xbe075546	-0.13216123
179	0x3c2a838d	0.010407341
180	0xbd624b74	-0.05524774
181	0x3b36a96c	0.002787198
182	0xbddaf918	-0.10692042
183	0xbe13b0f9	-0.14422978
184	0x3da4eb5f	0.08052706
185	0xbdd2d8a5	-0.10295228
186	0xbd3638ea	-0.04448787
187	0x3bd336c5	0.006445738
188	0xbca9ffe9	-0.02075191
189	0xbe21fc47	-0.15818892
190	0x3d396106	0.045258544
191	0xbd4690fc	-0.04847811
192	0x3dc96904	0.09834483
193	0x3d4f9418	0.050678343
194	0xbb0a533d	-0.0021106743
195	0xbd999dc1	-0.07500792
196	0x3e1b7f1f	0.15185212
197	0x3dde247f	0.10846805
198	0xbd98a45b	-0.07453223
199	0x3cdd6568	0.027025893
200	0x3db6e598	0.0893051
201	0x3c4119ae	0.011785908
202	0xbc9df483	-0.019281631
203	0x3cc4ef52	0.024039898
204	0x3d9ebdc9	0.077510424
205	0x3e118287	0.14209948
206	0xbc1cfc16	-0.009581586
207	0xbd86d610	-0.06583798
208	0x3cb5e97f	0.022206066
209	0xbcf31168	-0.029671386
210	0xbe15e10c	-0.1463663
211	0xbbfd7828	-0.007735271
212	0xbc978ba2	-0.0184992
213	0xbdf3dc83	-0.11907294
214	0x3c4c0e47	0.012454576
215	0x3dbed672	0.09318246
216	0x3ddc2f4f	0.10751211
217	0x3dbc16c1	0.091840275
218	0x3d370fa5	0.044692654
219	0xbe02f6bd	-0.12789436
220	0x3dda3907	0.10655408
221	0xbda05dcd	-0.07830391
222	0x3a62a33f	0.00086455414
223	0x3d97450c	0.073862165
224	0x3d21b4c6	0.03947904
225	0xbd81df24	-0.06341389
226	0x3c9072a2	0.017632786
227	0xbd831387	-0.06400209
228	0xbc1d69cc	-0.0096077435
229	0x3e19771b	0.14986841
230	0x3c0ee48e	0.008721484
231	0x3d3eb4e4	0.04655923
232	0x3e049c96	0.12950358
233	0xbc1789eb	-0.009249191
234	0xbdb8419d	-0.0899689
235	0x3d472d12	0.048626967
236	0xbdc46d80	-0.09591198
237	0xbd369a5f	-0.044580813
238	0xbda2ed5a	-0.079554275
239	0xbe32f09f	-0.17474602
240	0x3da3b7e2	0.07994057
241	0x3d44ec49	0.0480769
242	0xbdc7012e	-0.09717022
243	0x3d10bc03	0.035335552
244	0x3dfb4c2e	0.122703895
245	0xbaa52bba	-0.0012601533
246	0x3d64b90e	0.055840544
247	0xbe0f2d8f	-0.13982223
248	0xbd8ad2ae	-0.06778465
249	0x3d49ff45	0.04931571
250	0x3d5cd38b	0.05391268
251	0xbcd062f8	-0.025437817
252	0x3cfe9172	0.031075213
253	0xbd732b28	-0.05936733
254	0x3dba405d	0.090943076
255	0xbda4fa4d	-0.080555536

arith.constant24 f4 [64]
0	0x3bd0e53a	0.006374982
1	0xbc0ce4e7	-0.008599496
2	0xbd1a3d98	-0.037656397
3	0xbd19fb00	-0.037592888
4	0x3db152c5	0.08658365
5	0x3d974d44	0.07387784
6	0x3c990f32	0.018684004
7	0x3cbd9e68	0.023146823
8	0xbc75f8ed	-0.015012962
9	0x3d25a26e	0.04043811
10	0xbc939070	-0.01801321
11	0xbc0e8040	-0.008697569
12	0xbc36c345	-0.011154954
13	0xbdc6ddf6	-0.097103044
14	0xbb408832	-0.0029378054
15	0xbd845cd3	-0.06463017
16	0x3c719f0e	0.014747394
17	0xbd1607f1	-0.036628667
18	0xbc6ad6bf	-0.014333426
19	0xbd3ebb45	-0.046565313
20	0x3ccc3aa4	0.024930306
21	0x3d44c686	0.04804089
22	0xbc34f051	-0.011043624
23	0xbceebaa9	-0.02914174
24	0x3d81a323	0.06329944
25	0x3d83f53b	0.064432584
26	0xbce203b4	-0.027589656
27	0x3c15ec74	0.009150613
28	0x3da92f1b	0.08260938
29	0x3c94cbbc	0.018163554
30	0xbb7352c0	-0.003712818
31	0xbc8674d2	-0.016413126
32	0x3d88439a	0.06653519
33	0xbc67099a	-0.01410141
34	0xbd14f53f	-0.036366697
35	0xbcaa8449	-0.020815032
36	0xbc237f67	-0.009979106
37	0x3d48c1e7	0.049013045
38	0x3dee4193	0.11633601
39	0xbbce7124	-0.0063001085
40	0xbd243395	-0.040088255
41	0x3beb0f4e	0.0071734553
42	0x3d736e51	0.059431378
43	0xbc11179d	-0.0088557275
44	0xbc4ff08f	-0.012691631
45	0xbbe4225e	-0.0069621047
46	0x3d9a67af	0.07539307
47	0xbcae399b	-0.021267703
48	0x3d3db9f3	0.046319913
49	0x3b6c0c6d	0.0036018149
50	0xbc3022c8	-0.01075048
51	0x3d52b63a	0.051443316
52	0x3c974ee0	0.018470228
53	0xbd4630f5	-0.048386533
54	0xba93d13e	-0.0011277569
55	0xbafe8e94	-0.0019421154
56	0xbca6b249	-0.020348685
57	0x3d8f1ec7	0.06988292
58	0xbceee9d4	-0.029164232
59	0x3db9f450	0.09079802
60	0xbcab8fbc	-0.020942561
61	0xbcae0cf9	-0.02124642
62	0x3dafb3c8	0.085792124
63	0xbca075f3	-0.019587493

arith.constant25 f4 [64]
0	0xbc907186	-0.017632257
1	0x3dc58f1f	0.09646439
2	0xbd0bdf43	-0.034148466
3	0xbca14b6c	-0.019689284
4	0x3d8c277e	0.0684347
5	0xbd527439	-0.05138037
6	0x3c0f4328	0.008744039
7	0xbd2f42cf	-0.042788323
8	0x3d730f44	0.05934073
9	0xbd2a2e8e	-0.041548304
10	0xbcfcf5e8	-0.030878976
11	0xbcfab753	-0.030604994
12	0x3d756463	0.05991019
13	0xbd4144bb	-0.047184687
14	0x3a5c62d4	0.00084070605
15	0x3b9e4fb6	0.0048312796
16	0xbc858417	-0.016298337
17	0xbd68f209	-0.056871448
18	0xbd88a7df	-0.06672644
19	0x3c699aee	0.0142581295
20	0xbd57977f	-0.052634712
21	0xbd23f00a	-0.04002384
22	0xbcac12e9	-0.02100511
23	0x3c66b502	0.014081242
24	0xbd1607df	-0.0366286
25	0xbd493173	-0.049119424
26	0xbc29a525	-0.010354315
27	0xbd4c988a	-0.04995016
28	0xbd63f221	-0.055650834
29	0xbd368ce1	-0.044567946
30	0xbc476f6a	-0.012172559
31	0xbcf7a168	-0.030228332
32	0xbbbe2913	-0.0058032363
33	0xbccd044c	-0.025026463
34	0xbd594bca	-0.053050794
35	0x3d0595ec	0.03261368
36	0xbc8e02d1	-0.017335327
37	0x3a130c9a	0.0005609483
38	0xbd5bd81a	-0.053672887
39	0xbd035899	-0.032066915
40	0xbca68d7a	-0.020331133
41	0x3d946f7b	0.07247826
42	0x3b1adafb	0.0023629058
43	0x3d756b80	0.059916973
44	0x3c8286a9	0.015933352
45	0xbcd23ae2	-0.025662843
46	0xbcd21e29	-0.025649147
47	0xbc821376	-0.01587842
48	0xbd0f6bfc	-0.03501509
49	0xbc55d517	-0.013051293
50	0xbc41e088	-0.011833318
51	0xbd04337d	-0.032275666
52	0xbd8fd192	-0.07022394
53	0xbcede9db	-0.029042175
54	0x3c9354a9	0.017984705
55	0xbc773def	-0.01509045
56	0xbcbf6eab	-0.0233682
57	0xbd190c15	-0.037365038
58	0x3d109ed6	0.035307728
59	0x3d5c7053	0.05381806
60	0x3cab47f6	0.020908337
61	0xbbf18d23	-0.007371561
62	0xbce01fc4	-0.027358897
63	0x3d26e803	0.040748607

arith.constant26 f4 [64]
0	0xbc46eabb	-0.012140925
1	0xbc459045	-0.012058322
2	0x3d120f1e	0.035658948
3	0xbc6d34dc	-0.014477935
4	0xbbb5ec8f	-0.0055518816
5	0xbd05a9c7	-0.032632615
6	0xbcfa746b	-0.03057309
7	0xbc9e14b9	-0.01929699
8	0xbd17dc46	-0.037075303
9	0xbca2e672	-0.019885276
10	0x3c15d49d	0.009144929
11	0xbc4f1569	-0.012639382
12	0x3b990677	0.00466996
13	0xbbf6f91a	-0.0075370194
14	0xbc6c0492	-0.0144053865
15	0xbc9ceab1	-0.019154878
16	0x3d3b21cd	0.04568653
17	0xbc7e95e5	-0.015538667
18	0xbc937314	-0.01799921
19	0xbc09c2b8	-0.008408241
20	0xbc76d869	-0.015066245
21	0xbcd6e133	-0.02623043
22	0x3ceb4e2f	0.028723804
23	0xbd2f32ba	-0.042772986
24	0xbd3166d5	-0.04331096
25	0xbd9d66a5	-0.076855935
26	0x3c900aa7	0.017583204
27	0xbc570c7a	-0.013125533
28	0xbc385408	-0.011250503
29	0x3bd04cd5	0.0063568153
30	0xbc5176d5	-0.012784679
31	0xbd263d59	-0.04058585
32	0xbcf3fd9a	-0.029784013
33	0xbc6a4d4b	-0.014300655
34	0x3d38303e	0.044967882
35	0xbd30b356	-0.043139778
36	0x3d463716	0.048392378
37	0x3d4dea38	0.050272197
38	0xbc1f6de0	-0.009730786
39	0xbcfe87f2	-0.031070683
40	0xbd1d27ae	-0.03836792
41	0xbd025dfd	-0.031827915
42	0xbce6319e	-0.028099831
43	0xbca1c781	-0.019748451
44	0xbc06fd2b	-0.008239071
45	0x3c9b8641	0.018984916
46	0x3d8e9564	0.06962088
47	0xbd0cd4dd	-0.03438269
48	0xbc925887	-0.017864479
49	0xbd0fa909	-0.035073314
50	0x3c33e46b	0.010979752
51	0xbbe34867	-0.0069361213
52	0x3d3ba92b	0.045815628
53	0xbd41267e	-0.04715585
54	0x3d09f9ce	0.033685498
55	0xbc33ccef	-0.010974153
56	0x3d7e27a4	0.062049523
57	0x3abf6290	0.0014601517
58	0xbcbeceb6	-0.023291927
59	0xbc88acca	-0.016683955
60	0xbd406b24	-0.046977177
61	0xbcb77d82	-0.022398714
62	0x3b248855	0.0025105674
63	0xbd95f660	-0.07322383

arith.constant27 f4 [64]
0	0xbbf31ead	-0.0074194283
1	0x3abd4733	0.0014440775
2	0xbcbcef41	-0.023063304
3	0xbcd273bf	-0.025689958
4	0x3cccbbf0	0.02499196
5	0xbc4c175c	-0.012456741
6	0x3d4f54b3	0.050617885
7	0x3cd0627a	0.025437582
8	0xbd91eed8	-0.07125634
9	0x3d3e492f	0.046456512
10	0x3d0af8ac	0.03392856
11	0xbcd582b4	-0.0260633
12	0xbd4ddef8	-0.050261468
13	0xbd33c425	-0.04388823
14	0x3d56262a	0.05228249
15	0xbd239628	-0.039938122
16	0xbc932756	-0.017963093
17	0xbc4dd1ef	-0.012562259
18	0xbcf5f443	-0.0300237
19	0xbd5f6700	-0.054541588
20	0xbc927aa9	-0.017880755
21	0xbd00b2f4	-0.031420663
22	0x3d50dff4	0.05099483
23	0xbda9b850	-0.08287108
24	0x3d2b2fab	0.041793507
25	0xbcc5af82	-0.02413154
26	0xbbfdeeb2	-0.007749402
27	0xbc73cc15	-0.0148802
28	0xbce1a6ee	-0.027545419
29	0xbcafc79b	-0.021457484
30	0xbcf710c5	-0.030159364
31	0xbce1e417	-0.027574582
32	0x3c25b128	0.010113038
33	0xbd0ab43c	-0.03386329
34	0xbccee9dc	-0.025257997
35	0xbdaad699	-0.083417125
36	0xbd936e57	-0.0719878
37	0xbd11082e	-0.03540819
38	0xbcd4dd33	-0.025984382
39	0x3d36529f	0.044512387
40	0xbd1fbbc2	-0.03899742
41	0x3c128fb6	0.008945396
42	0xbd49050d	-0.049077082
43	0x3b8a251c	0.0042158496
44	0xbd00bba6	-0.031428955
45	0xbc97dc40	-0.01853764
46	0xbd004574	-0.031316236
47	0x3d7e029a	0.0620142
48	0xbd831c84	-0.06401923
49	0xbd0c2fec	-0.03422539
50	0xbc45a0b2	-0.0120622385
51	0x3ced3b39	0.028958904
52	0xbd386ba1	-0.045024518
53	0x3cabb1e2	0.020958845
54	0xbcde9e98	-0.027175233
55	0xbd0d4811	-0.034492556
56	0x3cb3fe9e	0.021971997
57	0x3d3a42e0	0.045473933
58	0x3d1c9068	0.038223654
59	0xbcca24e4	-0.024675794
60	0xbd1ec609	-0.03876308
61	0xbd1b68ab	-0.037941616
62	0x3b5d7e68	0.0033797268
63	0xbd4fc595	-0.05072554

arith.constant28 f4 [64]
0	0xbd62306b	-0.055221956
1	0xbd126d1e	-0.035748594
2	0x3c9a4eba	0.018836368
3	0xbd1a08a0	-0.03760588
4	0x3d82cd87	0.063868575
5	0xbda61542	-0.08109523
6	0xbca2d4e0	-0.019876897
7	0x3cb47767	0.022029592
8	0xbc20a981	-0.009806038
9	0xbcf5b59a	-0.029993821
10	0x3c7fb0d1	0.015606121
11	0x3de086a6	0.10963182
12	0x3cf94bb2	0.030431602
13	0x3caba79a	0.020953942
14	0xbbef56f3	-0.0073040663
15	0xbc2a3e93	-0.010390895
16	0xbc805a32	-0.015668008
17	0x3ca1b54d	0.019739771
18	0x3bb6987f	0.005572378
19	0xbd21736b	-0.03941671
20	0x3d2a4196	0.041566454
21	0x3cccfd55	0.025023142
22	0x3c252ea1	0.010081918
23	0xbc9b0ed5	-0.01892797
24	0xbcd48e2b	-0.025946697
25	0xbc8df6e0	-0.017329633
26	0xbc89e42f	-0.01683244
27	0xbd031ca3	-0.032009732
28	0xbc1c6011	-0.009544388
29	0xbbc38bf1	-0.00596761
30	0xbce1509b	-0.027504256
31	0x3cdc483d	0.026889915
32	0xbc0fde73	-0.008781063
33	0xbcf7d24d	-0.030251646
34	0x3cb6484a	0.022251267
35	0xbc93815b	-0.018006017
36	0x3d343b3e	0.04400181
37	0xbd0186c2	-0.031622656
38	0xbd0869d4	-0.03330405
39	0xbcb480e8	-0.022034124
40	0x3c3dc66b	0.011582951
41	0x3d2e63da	0.042575695
42	0xbcf3542d	-0.029703224
43	0xbcdc0e12	-0.026862178
44	0xbc73b87c	-0.0148755275
45	0xbd2f15d3	-0.042745423
46	0xbc37ea3a	-0.011225278
47	0x3c9d8040	0.019226193
48	0xbd3378d0	-0.043816388
49	0xbcd4c2bc	-0.025971763
50	0xbd1623ff	-0.036655422
51	0xbce57a2d	-0.02801236
52	0x3bb8e2a3	0.0056422516
53	0xbdaeb841	-0.085312374
54	0x3d278c22	0.040905125
55	0xbdb02850	-0.08601439
56	0xbc7a315d	-0.015270558
57	0x3d14a2bb	0.036288004
58	0xbdbdd57b	-0.09269234
59	0x3d1124be	0.03543543
60	0xbc1da1d7	-0.009621105
61	0xbc258adc	-0.010103907
62	0xbcf2995b	-0.029614141
63	0xbc8e5c42	-0.017377976

arith.constant29 f4 [32]
0	0xbcfd91e8	-0.030953363
1	0x3be9dc9d	0.007136895
2	0x00000000	0.0
3	0x3bca8255	0.0061800876
4	0xbd44f43a	-0.048084475
5	0xbc6c9f68	-0.014442302
6	0x3c18310b	0.0092890365
7	0xbd2baf66	-0.04191532
8	0xbdafd23e	-0.085850224
9	0xbd0e9446	-0.034809373
10	0x3a8fb497	0.0010963854
11	0xbc4f1eb9	-0.012641602
12	0xbcd7db0a	-0.026349563
13	0x3d2e48d4	0.042549923
14	0xbcae68e1	-0.021290245
15	0x3d504d01	0.050854687
16	0xbd920fe7	-0.071319394
17	0xbd043f62	-0.03228701
18	0xbdb30f7f	-0.0874319
19	0xbc98bdb1	-0.01864514
20	0xbd0289e1	-0.031869773
21	0x3d902b40	0.07039499
22	0xbcc79105	-0.024361143
23	0xbc5d9568	-0.013524391
24	0x3b1af6fa	0.0023645745
25	0xbde933b8	-0.11386818
26	0x3cd5ef13	0.026114976
27	0x3c240a22	0.0100121815
28	0xbc167e46	-0.009185379
29	0xbc22b2cc	-0.009930324
30	0xbdac8dc0	-0.08425474
31	0xbcf0dfba	-0.029403556

tfl.pseudo_qconst i1 [64, 3, 3, 64]
0	0x08	8
1	0x1a	26
2	0xce	-50
3	0xdf	-33
4	0x0d	13
5	0x04	4
6	0x19	25
7	0xde	-34
8	0x4f	79
9	0x16	22
10	0xf1	-15
11	0xec	-20
12	0x8b	-117
13	0xdb	-37
14	0xfa	-6
15	0x23	35
16	0x08	8
17	0xec	-20
18	0xd4	-44
19	0x29	41
20	0x21	33
21	0xcd	-51
22	0x16	22
23	0xc1	-63
24	0x2b	43
25	0x2a	42
26	0xed	-19
27	0x0b	11
28	0x1f	31
29	0xd6	-42
30	0x00	0
31	0x1e	30
32	0xe6	-26
33	0xd4	-44
34	0xf5	-11
35	0xde	-34
36	0x1e	30
37	0xee	-18
38	0xfc	-4
39	0x1b	27
40	0x13	19
41	0x09	9
42	0xf7	-9
43	0x28	40
44	0xfb	-5
45	0x31	49
46	0x3c	60
47	0xf8	-8
48	0xf3	-13
49	0xda	-38
50	0x06	6
51	0xda	-38
52	0xeb	-21
53	0xf0	-16
54	0xd9	-39
55	0xd1	-47
56	0xd5	-43
57	0x0b	11
58	0xe7	-25
59	0x03	3
60	0x03	3
61	0x10	16
62	0xfd	-3
63	0x27	39
64	0xe0	-32
65	0x27	39
66	0xf7	-9
67	0x3b	59
68	0x15	21
69	0xed	-19
70	0x1f	31
71	0x20	32
72	0x28	40
73	0xd8	-40
74	0x11	17
75	0x18	24
76	0xcf	-49
77	0xf9	-7
78	0xfd	-3
79	0xfd	-3
80	0xfe	-2
81	0xe2	-30
82	0xe2	-30
83	0x22	34
84	0x23	35
85	0xe2	-30
86	0xc5	-59
87	0xc2	-62
88	0xc9	-55
89	0xfc	-4
90	0xd5	-43
91	0xf0	-16
92	0xdc	-36
93	0x01	1
94	0x2a	42
95	0x29	41
96	0xc1	-63
97	0xc4	-60
98	0x1d	29
99	0xc9	-55
100	0x16	22
101	0x09	9
102	0x06	6
103	0xd4	-44
104	0xfe	-2
105	0x28	40
106	0x19	25
107	0xd6	-42
108	0x1a	26
109	0xec	-20
110	0xc8	-56
111	0xec	-20
112	0x25	37
113	0xd1	-47
114	0xdf	-33
115	0xfa	-6
116	0xf1	-15
117	0xef	-17
118	0xfc	-4
119	0x34	52
120	0x34	52
121	0xf1	-15
122	0x2b	43
123	0xd8	-40
124	0x1e	30
125	0x16	22
126	0x07	7
127	0x33	51
128	0xd1	-47
129	0x17	23
130	0x16	22
131	0xdb	-37
132	0xc5	-59
133	0xc1	-63
134	0xf4	-12
135	0x02	2
136	0x16	22
137	0xfe	-2
138	0xff	-1
139	0x15	21
140	0x17	23
141	0x93	-109
142	0x28	40
143	0xef	-17
144	0x23	35
145	0xff	-1
146	0xf7	-9
147	0x11	17
148	0xf4	-12
149	0x25	37
150	0x03	3
151	0xea	-22
152	0x3e	62
153	0x2d	45
154	0x24	36
155	0xe4	-28
156	0x15	21
157	0x01	1
158	0x0c	12
159	0x01	1
160	0xf2	-14
161	0xd4	-44
162	0xe3	-29
163	0xf3	-13
164	0xd3	-45
165	0x36	54
166	0xde	-34
167	0xdd	-35
168	0x06	6
169	0xe0	-32
170	0x22	34
171	0xd1	-47
172	0xd4	-44
173	0x05	5
174	0xe4	-28
175	0xd4	-44
176	0x19	25
177	0x05	5
178	0xed	-19
179	0x4c	76
180	0x2b	43
181	0x02	2
182	0x0f	15
183	0x18	24
184	0xf1	-15
185	0xd7	-41
186	0x02	2
187	0xe5	-27
188	0x2f	47
189	0x0b	11
190	0x0a	10
191	0xfe	-2
192	0x1e	30
193	0x0f	15
194	0xba	-70
195	0xfc	-4
196	0x3f	63
197	0x0e	14
198	0x18	24
199	0xf8	-8
200	0x21	33
201	0x12	18
202	0x0e	14
203	0xad	-83
204	0xee	-18
205	0xd9	-39
206	0xfb	-5
207	0x0c	12
208	0xef	-17
209	0xa6	-90
210	0xbd	-67
211	0x0d	13
212	0xdf	-33
213	0x0b	11
214	0x12	18
215	0x19	25
216	0xcb	-53
217	0xd7	-41
218	0x25	37
219	0x64	100
220	0x19	25
221	0xdc	-36
222	0x1f	31
223	0x26	38
224	0x15	21
225	0xd4	-44
226	0xe2	-30
227	0x04	4
228	0x05	5
229	0xfb	-5
230	0xd7	-41
231	0x21	33
232	0xee	-18
233	0xea	-22
234	0x0e	14
235	0x26	38
236	0x0a	10
237	0x16	22
238	0x00	0
239	0xfb	-5
240	0x2f	47
241	0x12	18
242	0x20	32
243	0x79	121
244	0xd2	-46
245	0xde	-34
246	0x1a	26
247	0xcf	-49
248	0x04	4
249	0x21	33
250	0xf1	-15
251	0x3f	63
252	0xf5	-11
253	0xde	-34
254	0xee	-18
255	0x32	50

tfl.pseudo_qconst1 i1 [64, 3, 3, 64]
0	0x1b	27
1	0x35	53
2	0x9c	-100
3	0x24	36
4	0xad	-83
5	0xdd	-35
6	0xfc	-4
7	0xe9	-23
8	0xc0	-64
9	0x0e	14
10	0x0e	14
11	0xe0	-32
12	0xb9	-71
13	0xdb	-37
14	0xbb	-69
15	0x1d	29
16	0xb3	-77
17	0xe0	-32
18	0x03	3
19	0xe9	-23
20	0xf9	-7
21	0xea	-22
22	0x0a	10
23	0x10	16
24	0xf4	-12
25	0xf7	-9
26	0xf8	-8
27	0xc9	-55
28	0xf3	-13
29	0xc3	-61
30	0xf3	-13
31	0xee	-18
32	0x21	33
33	0x02	2
34	0xae	-82
35	0xa5	-91
36	0xaa	-86
37	0x28	40
38	0x1a	26
39	0x0b	11
40	0x24	36
41	0xe7	-25
42	0xdd	-35
43	0x16	22
44	0x27	39
45	0xa9	-87
46	0xf4	-12
47	0x1a	26
48	0xb8	-72
49	0x0e	14
50	0xd5	-43
51	0xc0	-64
52	0xed	-19
53	0xd1	-47
54	0x06	6
55	0x0c	12
56	0xcc	-52
57	0xb2	-78
58	0x09	9
59	0xe7	-25
60	0x36	54
61	0xc0	-64
62	0xb6	-74
63	0x02	2
64	0xfa	-6
65	0x0b	11
66	0xba	-70
67	0xe6	-26
68	0xc1	-63
69	0x16	22
70	0xca	-54
71	0xe3	-29
72	0x0a	10
73	0xe3	-29
74	0xe0	-32
75	0x07	7
76	0xb9	-71
77	0xff	-1
78	0x01	1
79	0x2b	43
80	0xf3	-13
81	0xd7	-41
82	0xf2	-14
83	0x09	9
84	0x06	6
85	0x23	35
86	0x06	6
87	0xdd	-35
88	0xed	-19
89	0x31	49
90	0xde	-34
91	0xcb	-53
92	0x07	7
93	0xed	-19
94	0xed	-19
95	0x23	35
96	0xcb	-53
97	0xdf	-33
98	0xa4	-92
99	0xce	-50
100	0xe6	-26
101	0xe5	-27
102	0x0b	11
103	0x23	35
104	0xfa	-6
105	0xf3	-13
106	0xd1	-47
107	0xf7	-9
108	0xea	-22
109	0xd2	-46
110	0x21	33
111	0xe3	-29
112	0xf6	-10
113	0x49	73
114	0xd0	-48
115	0x98	-104
116	0xf9	-7
117	0xd9	-39
118	0x02	2
119	0xdc	-36
120	0xcc	-52
121	0xb7	-73
122	0xcf	-49
123	0xfe	-2
124	0x29	41
125	0x08	8
126	0x9b	-101
127	0xc9	-55
128	0xcf	-49
129	0xdb	-37
130	0x02	2
131	0xfa	-6
132	0xba	-70
133	0xe1	-31
134	0xe3	-29
135	0x35	53
136	0xd4	-44
137	0xdc	-36
138	0x17	23
139	0xf2	-14
140	0xf4	-12
141	0xbc	-68
142	0xc7	-57
143	0x06	6
144	0xe5	-27
145	0xbe	-66
146	0xe5	-27
147	0xcb	-53
148	0x30	48
149	0xe4	-28
150	0xfd	-3
151	0xff	-1
152	0xc2	-62
153	0x3f	63
154	0x9e	-98
155	0x05	5
156	0xd8	-40
157	0xbf	-65
158	0xfa	-6
159	0xd3	-45
160	0x2b	43
161	0xf3	-13
162	0xd9	-39
163	0xbd	-67
164	0xd0	-48
165	0xf1	-15
166	0xdb	-37
167	0x17	23
168	0x13	19
169	0xec	-20
170	0x06	6
171	0xda	-38
172	0xd6	-42
173	0xb0	-80
174	0xd6	-42
175	0x1c	28
176	0xcb	-53
177	0x4d	77
178	0x1b	27
179	0xf0	-16
180	0xd9	-39
181	0x0c	12
182	0xd6	-42
183	0x35	53
184	0xc7	-57
185	0xa6	-90
186	0xf1	-15
187	0xdd	-35
188	0x29	41
189	0xbc	-68
190	0xf8	-8
191	0x01	1
192	0xd8	-40
193	0x0f	15
194	0xe6	-26
195	0xe9	-23
196	0xc2	-62
197	0x2e	46
198	0x18	24
199	0xe3	-29
200	0x04	4
201	0x14	20
202	0xef	-17
203	0x16	22
204	0xbb	-69
205	0xde	-34
206	0x1b	27
207	0xdb	-37
208	0xe1	-31
209	0xcf	-49
210	0x25	37
211	0xec	-20
212	0xe3	-29
213	0x2f	47
214	0xd6	-42
215	0xf4	-12
216	0xc9	-55
217	0xff	-1
218	0xe6	-26
219	0xf1	-15
220	0x1d	29
221	0xf6	-10
222	0xe9	-23
223	0xcf	-49
224	0x25	37
225	0xfd	-3
226	0x22	34
227	0xc3	-61
228	0xda	-38
229	0xf3	-13
230	0x14	20
231	0x05	5
232	0x15	21
233	0xdf	-33
234	0xba	-70
235	0x02	2
236	0x2a	42
237	0xf6	-10
238	0xf3	-13
239	0xdb	-37
240	0xca	-54
241	0x2b	43
242	0xde	-34
243	0xed	-19
244	0x03	3
245	0x16	22
246	0xb5	-75
247	0xe4	-28
248	0x0a	10
249	0xff	-1
250	0xff	-1
251	0xab	-85
252	0xff	-1
253	0xe2	-30
254	0xd0	-48
255	0xff	-1

tfl.pseudo_qconst2 i1 [64, 3, 3, 64]
0	0xda	-38
1	0xb6	-74
2	0x35	53
3	0xe1	-31
4	0xf7	-9
5	0xd7	-41
6	0x20	32
7	0xbd	-67
8	0xfe	-2
9	0xb6	-74
10	0x21	33
11	0xfe	-2
12	0x23	35
13	0x11	17
14	0x25	37
15	0xb2	-78
16	0x08	8
17	0x24	36
18	0x02	2
19	0x31	49
20	0xc4	-60
21	0x35	53
22	0xd7	-41
23	0xd4	-44
24	0xee	-18
25	0x12	18
26	0x2c	44
27	0xdc	-36
28	0x08	8
29	0x1f	31
30	0xd0	-48
31	0xbd	-67
32	0x0c	12
33	0xfc	-4
34	0x20	32
35	0x09	9
36	0xd2	-46
37	0x10	16
38	0xf7	-9
39	0x38	56
40	0x29	41
41	0xeb	-21
42	0xe2	-30
43	0x48	72
44	0x39	57
45	0xc4	-60
46	0xfa	-6
47	0xf4	-12
48	0x4f	79
49	0x11	17
50	0x5b	91
51	0x07	7
52	0xea	-22
53	0x43	67
54	0x23	35
55	0xfa	-6
56	0xb4	-76
57	0x2e	46
58	0x14	20
59	0x05	5
60	0xe1	-31
61	0x0b	11
62	0xe2	-30
63	0x03	3
64	0xe7	-25
65	0x25	37
66	0xe9	-23
67	0xb7	-73
68	0xdb	-37
69	0x41	65
70	0x92	-110
71	0xb5	-75
72	0x2b	43
73	0x26	38
74	0x0d	13
75	0x0f	15
76	0x49	73
77	0xcb	-53
78	0xe7	-25
79	0x0f	15
80	0x05	5
81	0xdb	-37
82	0x33	51
83	0x20	32
84	0xd2	-46
85	0x2e	46
86	0x43	67
87	0x2f	47
88	0xd0	-48
89	0xdd	-35
90	0xaa	-86
91	0xde	-34
92	0xb5	-75
93	0xbb	-69
94	0xcf	-49
95	0xee	-18
96	0x2f	47
97	0xdd	-35
98	0x9b	-101
99	0xe8	-24
100	0x25	37
101	0xcc	-52
102	0xe6	-26
103	0xb8	-72
104	0xec	-20
105	0xc1	-63
106	0x16	22
107	0xb8	-72
108	0x0d	13
109	0x26	38
110	0x17	23
111	0x36	54
112	0xae	-82
113	0x18	24
114	0x38	56
115	0x3d	61
116	0xd0	-48
117	0x11	17
118	0xde	-34
119	0xfc	-4
120	0x06	6
121	0xa8	-88
122	0x4b	75
123	0x06	6
124	0x0d	13
125	0xcb	-53
126	0xc8	-56
127	0xe4	-28
128	0x30	48
129	0xdb	-37
130	0xc5	-59
131	0xbd	-67
132	0xf9	-7
133	0x27	39
134	0xe1	-31
135	0xfb	-5
136	0x21	33
137	0x05	5
138	0x05	5
139	0xdf	-33
140	0x17	23
141	0xcd	-51
142	0xca	-54
143	0x1c	28
144	0x2a	42
145	0x29	41
146	0x08	8
147	0x3c	60
148	0x13	19
149	0xb5	-75
150	0x16	22
151	0x44	68
152	0x00	0
153	0xc3	-61
154	0xff	-1
155	0x48	72
156	0x16	22
157	0xdb	-37
158	0x31	49
159	0xc8	-56
160	0xcc	-52
161	0xb4	-76
162	0xf8	-8
163	0xa0	-96
164	0xe2	-30
165	0xc7	-57
166	0xc1	-63
167	0x22	34
168	0xef	-17
169	0xc2	-62
170	0x29	41
171	0xbb	-69
172	0x2d	45
173	0xda	-38
174	0x06	6
175	0xcb	-53
176	0xcf	-49
177	0x50	80
178	0x3e	62
179	0x2b	43
180	0xc1	-63
181	0xb5	-75
182	0xba	-70
183	0xec	-20
184	0x44	68
185	0x18	24
186	0xb0	-80
187	0x39	57
188	0x09	9
189	0x65	101
190	0xe4	-28
191	0x42	66
192	0xb2	-78
193	0xfe	-2
194	0xce	-50
195	0xb5	-75
196	0xac	-84
197	0x43	67
198	0xeb	-21
199	0x06	6
200	0x41	65
201	0x49	73
202	0xfa	-6
203	0x32	50
204	0x1f	31
205	0xce	-50
206	0x10	16
207	0x33	51
208	0x4d	77
209	0xff	-1
210	0xe0	-32
211	0xb2	-78
212	0xc4	-60
213	0x0a	10
214	0x0a	10
215	0x0e	14
216	0xb5	-75
217	0x11	17
218	0x4c	76
219	0xf6	-10
220	0x38	56
221	0xb5	-75
222	0x45	69
223	0x09	9
224	0xfb	-5
225	0x0a	10
226	0xf8	-8
227	0x05	5
228	0xce	-50
229	0xd8	-40
230	0x2a	42
231	0x9f	-97
232	0x02	2
233	0x3c	60
234	0xeb	-21
235	0xc0	-64
236	0xd2	-46
237	0xba	-70
238	0x09	9
239	0x1d	29
240	0xf6	-10
241	0xc3	-61
242	0x49	73
243	0xd4	-44
244	0xf6	-10
245	0x26	38
246	0x2b	43
247	0x45	69
248	0x40	64
249	0xc4	-60
250	0xe6	-26
251	0xb7	-73
252	0xb6	-74
253	0xdc	-36
254	0x37	55
255	0xc7	-57

tfl.pseudo_qconst3 i1 [64, 3, 3, 64]
0	0x1c	28
1	0x22	34
2	0x3e	62
3	0x0c	12
4	0xa3	-93
5	0x01	1
6	0xd7	-41
7	0x24	36
8	0xf3	-13
9	0xed	-19
10	0xff	-1
11	0x35	53
12	0xb7	-73
13	0xb8	-72
14	0xff	-1
15	0x2e	46
16	0x03	3
17	0x28	40
18	0xf6	-10
19	0xff	-1
20	0xf4	-12
21	0x25	37
22	0xd5	-43
23	0x28	40
24	0x03	3
25	0xf9	-7
26	0xeb	-21
27	0x10	16
28	0x40	64
29	0xe1	-31
30	0x2a	42
31	0x46	70
32	0x20	32
33	0xfb	-5
34	0x19	25
35	0xf7	-9
36	0x07	7
37	0x0e	14
38	0x50	80
39	0xdb	-37
40	0xf7	-9
41	0xdb	-37
42	0x21	33
43	0x24	36
44	0xce	-50
45	0x07	7
46	0xf4	-12
47	0xf4	-12
48	0x17	23
49	0xb1	-79
50	0xec	-20
51	0x0b	11
52	0xce	-50
53	0xb8	-72
54	0x33	51
55	0x82	-126
56	0xd3	-45
57	0xf1	-15
58	0xee	-18
59	0xbe	-66
60	0xbc	-68
61	0x07	7
62	0xdc	-36
63	0x1b	27
64	0xe0	-32
65	0x3e	62
66	0xfb	-5
67	0x49	73
68	0xee	-18
69	0xd0	-48
70	0x35	53
71	0x07	7
72	0xf5	-11
73	0xfb	-5
74	0xbc	-68
75	0x06	6
76	0xf9	-7
77	0xe6	-26
78	0xf2	-14
79	0xd4	-44
80	0x0c	12
81	0xdb	-37
82	0x16	22
83	0xc7	-57
84	0x09	9
85	0xd6	-42
86	0xec	-20
87	0x1f	31
88	0xf6	-10
89	0xcd	-51
90	0xc3	-61
91	0xf3	-13
92	0x1c	28
93	0x36	54
94	0x11	17
95	0x7c	124
96	0x26	38
97	0xf6	-10
98	0xb4	-76
99	0x07	7
100	0x21	33
101	0xf5	-11
102	0x16	22
103	0xf0	-16
104	0x1d	29
105	0xb7	-73
106	0xd0	-48
107	0x30	48
108	0xf5	-11
109	0xf1	-15
110	0xfc	-4
111	0x14	20
112	0x25	37
113	0xab	-85
114	0x07	7
115	0x0e	14
116	0xe7	-25
117	0xfd	-3
118	0xc8	-56
119	0xce	-50
120	0xfe	-2
121	0xff	-1
122	0xb7	-73
123	0xf5	-11
124	0x3b	59
125	0xd7	-41
126	0xd9	-39
127	0x18	24
128	0x29	41
129	0x1d	29
130	0xc6	-58
131	0x57	87
132	0xdf	-33
133	0xb2	-78
134	0x38	56
135	0x3e	62
136	0xc9	-55
137	0xef	-17
138	0xe4	-28
139	0x0f	15
140	0x81	-127
141	0xaf	-81
142	0x27	39
143	0x0d	13
144	0xd9	-39
145	0xc3	-61
146	0xea	-22
147	0xc8	-56
148	0x0c	12
149	0x23	35
150	0xe2	-30
151	0xc8	-56
152	0xca	-54
153	0xcd	-51
154	0xe7	-25
155	0x30	48
156	0xd5	-43
157	0xce	-50
158	0x16	22
159	0x1a	26
160	0x1b	27
161	0x33	51
162	0x13	19
163	0xbe	-66
164	0xf6	-10
165	0x3e	62
166	0xce	-50
167	0x39	57
168	0x1f	31
169	0xcc	-52
170	0xf7	-9
171	0x18	24
172	0xcc	-52
173	0xdf	-33
174	0x0a	10
175	0xfd	-3
176	0x01	1
177	0xab	-85
178	0xd5	-43
179	0x29	41
180	0xdc	-36
181	0xf8	-8
182	0x39	57
183	0x84	-124
184	0xc2	-62
185	0x4a	74
186	0x07	7
187	0x0b	11
188	0x0e	14
189	0x3f	63
190	0xde	-34
191	0xcc	-52
192	0x06	6
193	0x3d	61
194	0xf8	-8
195	0xed	-19
196	0xea	-22
197	0xba	-70
198	0x03	3
199	0x21	33
200	0xe6	-26
201	0xd4	-44
202	0x05	5
203	0xf6	-10
204	0xda	-38
205	0xe2	-30
206	0x0a	10
207	0x3c	60
208	0xfc	-4
209	0xe1	-31
210	0x2b	43
211	0xba	-70
212	0x49	73
213	0xea	-22
214	0xf1	-15
215	0x2c	44
216	0x13	19
217	0x27	39
218	0xf7	-9
219	0x12	18
220	0x06	6
221	0xcd	-51
222	0x3a	58
223	0x56	86
224	0x24	36
225	0x47	71
226	0x04	4
227	0xdd	-35
228	0x1c	28
229	0x2b	43
230	0x21	33
231	0xde	-34
232	0x2a	42
233	0xe1	-31
234	0xf0	-16
235	0xe9	-23
236	0xe1	-31
237	0x13	19
238	0x13	19
239	0x02	2
240	0x15	21
241	0x9b	-101
242	0x26	38
243	0x1a	26
244	0x20	32
245	0xed	-19
246	0xde	-34
247	0xd1	-47
248	0x28	40
249	0x39	57
250	0xcb	-53
251	0xde	-34
252	0x16	22
253	0x37	55
254	0xcf	-49
255	0x30	48

tfl.pseudo_qconst4 i1 [64, 3, 3, 32]
0	0xf0	-16
1	0xdd	-35
2	0x1b	27
3	0x07	7
4	0xc9	-55
5	0x01	1
6	0x10	16
7	0x16	22
8	0xd9	-39
9	0x4e	78
10	0x39	57
11	0xf2	-14
12	0x9e	-98
13	0x18	24
14	0xcc	-52
15	0x3c	60
16	0x10	16
17	0xf5	-11
18	0x00	0
19	0xd3	-45
20	0x0b	11
21	0xdc	-36
22	0xca	-54
23	0xf6	-10
24	0x13	19
25	0x22	34
26	0xeb	-21
27	0x26	38
28	0xe2	-30
29	0xfa	-6
30	0xf7	-9
31	0xc3	-61
32	0x2a	42
33	0x04	4
34	0xe6	-26
35	0x35	53
36	0xf1	-15
37	0x06	6
38	0xc6	-58
39	0x1a	26
40	0xee	-18
41	0x2c	44
42	0x51	81
43	0x40	64
44	0xb2	-78
45	0xdf	-33
46	0x1e	30
47	0x3a	58
48	0xe2	-30
49	0x28	40
50	0x0a	10
51	0x04	4
52	0x23	35
53	0x3c	60
54	0xfe	-2
55	0xdc	-36
56	0x58	88
57	0x1b	27
58	0xa6	-90
59	0xf2	-14
60	0x1d	29
61	0x01	1
62	0x01	1
63	0xfe	-2
64	0x34	52
65	0x1d	29
66	0x1b	27
67	0x13	19
68	0x26	38
69	0xe4	-28
70	0x31	49
71	0xe3	-29
72	0xe9	-23
73	0x24	36
74	0x33	51
75	0x1f	31
76	0xb7	-73
77	0x2f	47
78	0xda	-38
79	0x35	53
80	0xe0	-32
81	0x0e	14
82	0xe9	-23
83	0xd3	-45
84	0x03	3
85	0x42	66
86	0x30	48
87	0xf7	-9
88	0x4e	78
89	0x21	33
90	0xd3	-45
91	0xec	-20
92	0xee	-18
93	0xe6	-26
94	0xdc	-36
95	0xe4	-28
96	0x2c	44
97	0xe7	-25
98	0x3b	59
99	0x1f	31
100	0x1c	28
101	0xf2	-14
102	0x11	17
103	0xcb	-53
104	0x1d	29
105	0x12	18
106	0xef	-17
107	0xf1	-15
108	0xee	-18
109	0xd1	-47
110	0xe4	-28
111	0x68	104
112	0xdd	-35
113	0xc2	-62
114	0xa6	-90
115	0xf2	-14
116	0x03	3
117	0x04	4
118	0x2d	45
119	0xa2	-94
120	0x38	56
121	0x01	1
122	0x9e	-98
123	0x12	18
124	0x26	38
125	0x2f	47
126	0x06	6
127	0xf5	-11
128	0x36	54
129	0xf1	-15
130	0x2c	44
131	0x21	33
132	0x0a	10
133	0x38	56
134	0xc9	-55
135	0xd8	-40
136	0x17	23
137	0x2a	42
138	0x4a	74
139	0xcf	-49
140	0xe2	-30
141	0xf8	-8
142	0xf0	-16
143	0x7f	127
144	0xb4	-76
145	0xff	-1
146	0x03	3
147	0x1d	29
148	0x1a	26
149	0x2f	47
150	0x07	7
151	0x14	20
152	0x06	6
153	0x30	48
154	0x0a	10
155	0xd0	-48
156	0x6a	106
157	0xe5	-27
158	0x38	56
159	0x25	37
160	0xc6	-58
161	0x1d	29
162	0xe5	-27
163	0xcc	-52
164	0x3d	61
165	0xdd	-35
166	0xe9	-23
167	0x18	24
168	0x0a	10
169	0xec	-20
170	0x00	0
171	0x23	35
172	0xac	-84
173	0xc4	-60
174	0x33	51
175	0x6c	108
176	0xcd	-51
177	0xdd	-35
178	0xb4	-76
179	0xf9	-7
180	0xf0	-16
181	0x0f	15
182	0x2e	46
183	0xbc	-68
184	0x09	9
185	0xe9	-23
186	0x37	55
187	0x1f	31
188	0x7a	122
189	0xcb	-53
190	0xd6	-42
191	0xdd	-35
192	0x33	51
193	0xfa	-6
194	0x2a	42
195	0xc6	-58
196	0xe8	-24
197	0xf3	-13
198	0x07	7
199	0x13	19
200	0x02	2
201	0x39	57
202	0xfd	-3
203	0xd5	-43
204	0xd2	-46
205	0xcb	-53
206	0x2c	44
207	0x14	20
208	0xcf	-49
209	0x08	8
210	0xdf	-33
211	0x3d	61
212	0xf4	-12
213	0xf1	-15
214	0xec	-20
215	0x8a	-118
216	0xfd	-3
217	0x30	48
218	0xd3	-45
219	0xbd	-67
220	0x02	2
221	0x3d	61
222	0x28	40
223	0xde	-34
224	0xe2	-30
225	0x12	18
226	0x11	17
227	0x22	34
228	0xf0	-16
229	0xe5	-27
230	0xc9	-55
231	0xbd	-67
232	0xfb	-5
233	0xf9	-7
234	0xf1	-15
235	0xdc	-36
236	0xae	-82
237	0xa2	-94
238	0x05	5
239	0xf8	-8
240	0xd6	-42
241	0xda	-38
242	0xc0	-64
243	0xf8	-8
244	0x29	41
245	0xf5	-11
246	0xc1	-63
247	0x8f	-113
248	0xe6	-26
249	0x20	32
250	0xd6	-42
251	0xcd	-51
252	0xfe	-2
253	0x07	7
254	0x28	40
255	0x09	9

tfl.pseudo_qconst5 i1 [64, 256]
0	0xe2	-30
1	0x79	121
2	0x18	24
3	0x30	48
4	0x28	40
5	0x11	17
6	0xf3	-13
7	0x20	32
8	0xe1	-31
9	0xe4	-28
10	0x1f	31
11	0x41	65
12	0xcb	-53
13	0x3a	58
14	0x04	4
15	0x0f	15
16	0x40	64
17	0xf7	-9
18	0x41	65
19	0x2f	47
20	0xdf	-33
21	0x22	34
22	0xbc	-68
23	0x20	32
24	0xf0	-16
25	0xba	-70
26	0x41	65
27	0x43	67
28	0x3a	58
29	0x45	69
30	0xde	-34
31	0x3c	60
32	0x4b	75
33	0xf4	-12
34	0xc2	-62
35	0x04	4
36	0xe5	-27
37	0x58	88
38	0x15	21
39	0x08	8
40	0x09	9
41	0xe7	-25
42	0x3e	62
43	0xfe	-2
44	0x2e	46
45	0x2e	46
46	0xbe	-66
47	0xff	-1
48	0xaf	-81
49	0x26	38
50	0xba	-70
51	0x39	57
52	0x05	5
53	0xf3	-13
54	0xfc	-4
55	0xe1	-31
56	0x38	56
57	0x1d	29
58	0x60	96
59	0x16	22
60	0x33	51
61	0xd9	-39
62	0xe9	-23
63	0x37	55
64	0x26	38
65	0xfc	-4
66	0x1c	28
67	0x24	36
68	0xef	-17
69	0x17	23
70	0xed	-19
71	0xc2	-62
72	0x49	73
73	0xf7	-9
74	0x60	96
75	0xc1	-63
76	0xe3	-29
77	0x06	6
78	0x75	117
79	0x5d	93
80	0x17	23
81	0x3b	59
82	0xc5	-59
83	0x3b	59
84	0xf2	-14
85	0xbf	-65
86	0xf6	-10
87	0x55	85
88	0xd7	-41
89	0x20	32
90	0x38	56
91	0xb6	-74
92	0xc1	-63
93	0xcc	-52
94	0xda	-38
95	0x26	38
96	0x0c	12
97	0xdd	-35
98	0x29	41
99	0x38	56
100	0xcc	-52
101	0xd8	-40
102	0xcd	-51
103	0x26	38
104	0xbb	-69
105	0xac	-84
106	0xbd	-67
107	0x0c	12
108	0x4a	74
109	0x49	73
110	0xf7	-9
111	0x27	39
112	0xe6	-26
113	0xfa	-6
114	0xf8	-8
115	0x41	65
116	0xe4	-28
117	0x4d	77
118	0x3a	58
119	0x1d	29
120	0x43	67
121	0x1c	28
122	0xb8	-72
123	0xfd	-3
124	0x48	72
125	0xba	-70
126	0x34	52
127	0x40	64
128	0x0d	13
129	0x14	20
130	0x3b	59
131	0xf1	-15
132	0xf0	-16
133	0x07	7
134	0xc8	-56
135	0x2b	43
136	0xc9	-55
137	0xac	-84
138	0x1e	30
139	0x3b	59
140	0xe9	-23
141	0x97	-105
142	0x9d	-99
143	0x35	53
144	0xfd	-3
145	0xaf	-81
146	0xf7	-9
147	0xfe	-2
148	0xa5	-91
149	0x47	71
150	0x52	82
151	0x24	36
152	0xd8	-40
153	0xbe	-66
154	0x14	20
155	0xfc	-4
156	0x25	37
157	0x00	0
158	0x34	52
159	0x4d	77
160	0xfd	-3
161	0xe6	-26
162	0xcb	-53
163	0x3a	58
164	0xfb	-5
165	0x3c	60
166	0xe2	-30
167	0xee	-18
168	0x5d	93
169	0x0b	11
170	0xec	-20
171	0xb9	-71
172	0x05	5
173	0x46	70
174	0x24	36
175	0x0f	15
176	0x0b	11
177	0x0e	14
178	0x2c	44
179	0xd3	-45
180	0xc4	-60
181	0x25	37
182	0xee	-18
183	0xb4	-76
184	0xcc	-52
185	0xca	-54
186	0xc8	-56
187	0x04	4
188	0xe2	-30
189	0xbc	-68
190	0xab	-85
191	0xd7	-41
192	0x4c	76
193	0x69	105
194	0x19	25
195	0x2c	44
196	0x08	8
197	0x04	4
198	0x48	72
199	0x21	33
200	0x04	4
201	0x99	-103
202	0x37	55
203	0xd3	-45
204	0xf3	-13
205	0x81	-127
206	0x0a	10
207	0x33	51
208	0xcf	-49
209	0xcc	-52
210	0x4b	75
211	0xdf	-33
212	0xd3	-45
213	0xee	-18
214	0x1c	28
215	0x2d	45
216	0xfa	-6
217	0x04	4
218	0xb8	-72
219	0x0f	15
220	0x32	50
221	0xf7	-9
222	0xdf	-33
223	0x17	23
224	0xea	-22
225	0x24	36
226	0xfc	-4
227	0xf2	-14
228	0xc9	-55
229	0xe0	-32
230	0xcc	-52
231	0x1a	26
232	0x14	20
233	0xb8	-72
234	0x3b	59
235	0x29	41
236	0xc4	-60
237	0xc4	-60
238	0x1d	29
239	0x21	33
240	0xc7	-57
241	0x22	34
242	0xb5	-75
243	0xa8	-88
244	0xc4	-60
245	0x6f	111
246	0x13	19
247	0x09	9
248	0x17	23
249	0x4d	77
250	0x0e	14
251	0xcb	-53
252	0xdf	-33
253	0x28	40
254	0x1b	27
255	0x32	50
